…
2025-06-05 15:48:59,855   INFO  cfg.EXP_GROUP_PATH: waymo
2025-06-05 15:48:59,862   INFO  Start to load infos from /workspace/MTR-model/data/waymo/processed_scenarios_training_infos.pkl
2025-06-05 15:49:06,332   INFO  Total scenes before filters: 487002
2025-06-05 15:49:12,308   INFO  Total scenes after filter_info_by_object_type: 487002
2025-06-05 15:49:12,317   INFO  Total scenes after filters: 487002
2025-06-05 15:49:17,560   INFO  DistributedDataParallel(
  (module): MotionTransformer(
    (context_encoder): MTREncoder(
      (agent_polyline_encoder): PointNetPolylineEncoder(
        (pre_mlps): Sequential(
          (0): Linear(in_features=30, out_features=256, bias=False)
          (1): SyncBatchNorm(256, eps=1e-05, momentum=0.1, affine=True, track_running_stats=True)
          (2): ReLU()
        )
        (mlps): Sequential(
          (0): Linear(in_features=512, out_features=256, bias=False)
          (1): SyncBatchNorm(256, eps=1e-05, momentum=0.1, affine=True, track_running_stats=True)
          (2): ReLU()
          (3): Linear(in_features=256, out_features=256, bias=False)
          (4): SyncBatchNorm(256, eps=1e-05, momentum=0.1, affine=True, track_running_stats=True)
          (5): ReLU()
        )
        (out_mlps): Sequential(
          (0): Linear(in_features=256, out_features=256, bias=True)
          (1): ReLU()
          (2): Linear(in_features=256, out_features=256, bias=True)
        )
      )
      (map_polyline_encoder): PointNetPolylineEncoder(
        (pre_mlps): Sequential(
          (0): Linear(in_features=9, out_features=64, bias=False)
          (1): SyncBatchNorm(64, eps=1e-05, momentum=0.1, affine=True, track_running_stats=True)
          (2): ReLU()
          (3): Linear(in_features=64, out_features=64, bias=False)
          (4): SyncBatchNorm(64, eps=1e-05, momentum=0.1, affine=True, track_running_stats=True)
          (5): ReLU()
          (6): Linear(in_features=64, out_features=64, bias=False)
          (7): SyncBatchNorm(64, eps=1e-05, momentum=0.1, affine=True, track_running_stats=True)
          (8): ReLU()
        )
        (mlps): Sequential(
          (0): Linear(in_features=128, out_features=64, bias=False)
          (1): SyncBatchNorm(64, eps=1e-05, momentum=0.1, affine=True, track_running_stats=True)
          (2): ReLU()
          (3): Linear(in_features=64, out_features=64, bias=False)
          (4): SyncBatchNorm(64, eps=1e-05, momentum=0.1, affine=True, track_running_stats=True)
          (5): ReLU()
        )
        (out_mlps): Sequential(
          (0): Linear(in_features=64, out_features=64, bias=True)
          (1): ReLU()
          (2): Linear(in_features=64, out_features=256, bias=True)
        )
      )
      (self_attn_layers): ModuleList(
        (0): TransformerEncoderLayer(
          (self_attn): MultiheadAttentionLocal(
            (out_proj): Linear(in_features=256, out_features=256, bias=True)
          )
          (linear1): Linear(in_features=256, out_features=1024, bias=True)
          (dropout): Dropout(p=0.1, inplace=False)
          (linear2): Linear(in_features=1024, out_features=256, bias=True)
          (norm1): LayerNorm((256,), eps=1e-05, elementwise_affine=True)
          (norm2): LayerNorm((256,), eps=1e-05, elementwise_affine=True)
          (dropout1): Dropout(p=0.1, inplace=False)
          (dropout2): Dropout(p=0.1, inplace=False)
        )
        (1): TransformerEncoderLayer(
          (self_attn): MultiheadAttentionLocal(
            (out_proj): Linear(in_features=256, out_features=256, bias=True)
          )
          (linear1): Linear(in_features=256, out_features=1024, bias=True)
          (dropout): Dropout(p=0.1, inplace=False)
          (linear2): Linear(in_features=1024, out_features=256, bias=True)
          (norm1): LayerNorm((256,), eps=1e-05, elementwise_affine=True)
          (norm2): LayerNorm((256,), eps=1e-05, elementwise_affine=True)
          (dropout1): Dropout(p=0.1, inplace=False)
          (dropout2): Dropout(p=0.1, inplace=False)
        )
        (2): TransformerEncoderLayer(
          (self_attn): MultiheadAttentionLocal(
            (out_proj): Linear(in_features=256, out_features=256, bias=True)
          )
          (linear1): Linear(in_features=256, out_features=1024, bias=True)
          (dropout): Dropout(p=0.1, inplace=False)
          (linear2): Linear(in_features=1024, out_features=256, bias=True)
          (norm1): LayerNorm((256,), eps=1e-05, elementwise_affine=True)
          (norm2): LayerNorm((256,), eps=1e-05, elementwise_affine=True)
          (dropout1): Dropout(p=0.1, inplace=False)
          (dropout2): Dropout(p=0.1, inplace=False)
        )
        (3): TransformerEncoderLayer(
          (self_attn): MultiheadAttentionLocal(
            (out_proj): Linear(in_features=256, out_features=256, bias=True)
          )
          (linear1): Linear(in_features=256, out_features=1024, bias=True)
          (dropout): Dropout(p=0.1, inplace=False)
          (linear2): Linear(in_features=1024, out_features=256, bias=True)
          (norm1): LayerNorm((256,), eps=1e-05, elementwise_affine=True)
          (norm2): LayerNorm((256,), eps=1e-05, elementwise_affine=True)
          (dropout1): Dropout(p=0.1, inplace=False)
          (dropout2): Dropout(p=0.1, inplace=False)
        )
        (4): TransformerEncoderLayer(
          (self_attn): MultiheadAttentionLocal(
            (out_proj): Linear(in_features=256, out_features=256, bias=True)
          )
          (linear1): Linear(in_features=256, out_features=1024, bias=True)
          (dropout): Dropout(p=0.1, inplace=False)
          (linear2): Linear(in_features=1024, out_features=256, bias=True)
          (norm1): LayerNorm((256,), eps=1e-05, elementwise_affine=True)
          (norm2): LayerNorm((256,), eps=1e-05, elementwise_affine=True)
          (dropout1): Dropout(p=0.1, inplace=False)
          (dropout2): Dropout(p=0.1, inplace=False)
        )
        (5): TransformerEncoderLayer(
          (self_attn): MultiheadAttentionLocal(
            (out_proj): Linear(in_features=256, out_features=256, bias=True)
          )
          (linear1): Linear(in_features=256, out_features=1024, bias=True)
          (dropout): Dropout(p=0.1, inplace=False)
          (linear2): Linear(in_features=1024, out_features=256, bias=True)
          (norm1): LayerNorm((256,), eps=1e-05, elementwise_affine=True)
          (norm2): LayerNorm((256,), eps=1e-05, elementwise_affine=True)
          (dropout1): Dropout(p=0.1, inplace=False)
          (dropout2): Dropout(p=0.1, inplace=False)
        )
      )
    )
    (motion_decoder): MTRDecoder(
      (in_proj_center_obj): Sequential(
        (0): Linear(in_features=256, out_features=512, bias=True)
        (1): ReLU()
        (2): Linear(in_features=512, out_features=512, bias=True)
      )
      (in_proj_obj): Sequential(
        (0): Linear(in_features=256, out_features=512, bias=True)
        (1): ReLU()
        (2): Linear(in_features=512, out_features=512, bias=True)
      )
      (obj_decoder_layers): ModuleList(
        (0): TransformerDecoderLayer(
          (sa_qcontent_proj): Linear(in_features=512, out_features=512, bias=True)
          (sa_qpos_proj): Linear(in_features=512, out_features=512, bias=True)
          (sa_kcontent_proj): Linear(in_features=512, out_features=512, bias=True)
          (sa_kpos_proj): Linear(in_features=512, out_features=512, bias=True)
          (sa_v_proj): Linear(in_features=512, out_features=512, bias=True)
          (self_attn): MultiheadAttention(
            (out_proj): Linear(in_features=512, out_features=512, bias=True)
          )
          (norm1): LayerNorm((512,), eps=1e-05, elementwise_affine=True)
          (dropout1): Dropout(p=0.1, inplace=False)
          (ca_qcontent_proj): Linear(in_features=512, out_features=512, bias=True)
          (ca_qpos_proj): Linear(in_features=512, out_features=512, bias=True)
          (ca_kcontent_proj): Linear(in_features=512, out_features=512, bias=True)
          (ca_kpos_proj): Linear(in_features=512, out_features=512, bias=True)
          (ca_v_proj): Linear(in_features=512, out_features=512, bias=True)
          (ca_qpos_sine_proj): Linear(in_features=512, out_features=512, bias=True)
          (cross_attn): MultiheadAttention(
            (out_proj): Linear(in_features=512, out_features=512, bias=True)
          )
          (linear1): Linear(in_features=512, out_features=2048, bias=True)
          (dropout): Dropout(p=0.1, inplace=False)
          (linear2): Linear(in_features=2048, out_features=512, bias=True)
          (norm2): LayerNorm((512,), eps=1e-05, elementwise_affine=True)
          (norm3): LayerNorm((512,), eps=1e-05, elementwise_affine=True)
          (dropout2): Dropout(p=0.1, inplace=False)
          (dropout3): Dropout(p=0.1, inplace=False)
        )
        (1): TransformerDecoderLayer(
          (sa_qcontent_proj): Linear(in_features=512, out_features=512, bias=True)
          (sa_qpos_proj): Linear(in_features=512, out_features=512, bias=True)
          (sa_kcontent_proj): Linear(in_features=512, out_features=512, bias=True)
          (sa_kpos_proj): Linear(in_features=512, out_features=512, bias=True)
          (sa_v_proj): Linear(in_features=512, out_features=512, bias=True)
          (self_attn): MultiheadAttention(
            (out_proj): Linear(in_features=512, out_features=512, bias=True)
          )
          (norm1): LayerNorm((512,), eps=1e-05, elementwise_affine=True)
          (dropout1): Dropout(p=0.1, inplace=False)
          (ca_qcontent_proj): Linear(in_features=512, out_features=512, bias=True)
          (ca_qpos_proj): Linear(in_features=512, out_features=512, bias=True)
          (ca_kcontent_proj): Linear(in_features=512, out_features=512, bias=True)
          (ca_kpos_proj): Linear(in_features=512, out_features=512, bias=True)
          (ca_v_proj): Linear(in_features=512, out_features=512, bias=True)
          (ca_qpos_sine_proj): Linear(in_features=512, out_features=512, bias=True)
          (cross_attn): MultiheadAttention(
            (out_proj): Linear(in_features=512, out_features=512, bias=True)
          )
          (linear1): Linear(in_features=512, out_features=2048, bias=True)
          (dropout): Dropout(p=0.1, inplace=False)
          (linear2): Linear(in_features=2048, out_features=512, bias=True)
          (norm2): LayerNorm((512,), eps=1e-05, elementwise_affine=True)
          (norm3): LayerNorm((512,), eps=1e-05, elementwise_affine=True)
          (dropout2): Dropout(p=0.1, inplace=False)
          (dropout3): Dropout(p=0.1, inplace=False)
        )
        (2): TransformerDecoderLayer(
          (sa_qcontent_proj): Linear(in_features=512, out_features=512, bias=True)
          (sa_qpos_proj): Linear(in_features=512, out_features=512, bias=True)
          (sa_kcontent_proj): Linear(in_features=512, out_features=512, bias=True)
          (sa_kpos_proj): Linear(in_features=512, out_features=512, bias=True)
          (sa_v_proj): Linear(in_features=512, out_features=512, bias=True)
          (self_attn): MultiheadAttention(
            (out_proj): Linear(in_features=512, out_features=512, bias=True)
          )
          (norm1): LayerNorm((512,), eps=1e-05, elementwise_affine=True)
          (dropout1): Dropout(p=0.1, inplace=False)
          (ca_qcontent_proj): Linear(in_features=512, out_features=512, bias=True)
          (ca_qpos_proj): Linear(in_features=512, out_features=512, bias=True)
          (ca_kcontent_proj): Linear(in_features=512, out_features=512, bias=True)
          (ca_kpos_proj): Linear(in_features=512, out_features=512, bias=True)
          (ca_v_proj): Linear(in_features=512, out_features=512, bias=True)
          (ca_qpos_sine_proj): Linear(in_features=512, out_features=512, bias=True)
          (cross_attn): MultiheadAttention(
            (out_proj): Linear(in_features=512, out_features=512, bias=True)
          )
          (linear1): Linear(in_features=512, out_features=2048, bias=True)
          (dropout): Dropout(p=0.1, inplace=False)
          (linear2): Linear(in_features=2048, out_features=512, bias=True)
          (norm2): LayerNorm((512,), eps=1e-05, elementwise_affine=True)
          (norm3): LayerNorm((512,), eps=1e-05, elementwise_affine=True)
          (dropout2): Dropout(p=0.1, inplace=False)
          (dropout3): Dropout(p=0.1, inplace=False)
        )
        (3): TransformerDecoderLayer(
          (sa_qcontent_proj): Linear(in_features=512, out_features=512, bias=True)
          (sa_qpos_proj): Linear(in_features=512, out_features=512, bias=True)
          (sa_kcontent_proj): Linear(in_features=512, out_features=512, bias=True)
          (sa_kpos_proj): Linear(in_features=512, out_features=512, bias=True)
          (sa_v_proj): Linear(in_features=512, out_features=512, bias=True)
          (self_attn): MultiheadAttention(
            (out_proj): Linear(in_features=512, out_features=512, bias=True)
          )
          (norm1): LayerNorm((512,), eps=1e-05, elementwise_affine=True)
          (dropout1): Dropout(p=0.1, inplace=False)
          (ca_qcontent_proj): Linear(in_features=512, out_features=512, bias=True)
          (ca_qpos_proj): Linear(in_features=512, out_features=512, bias=True)
          (ca_kcontent_proj): Linear(in_features=512, out_features=512, bias=True)
          (ca_kpos_proj): Linear(in_features=512, out_features=512, bias=True)
          (ca_v_proj): Linear(in_features=512, out_features=512, bias=True)
          (ca_qpos_sine_proj): Linear(in_features=512, out_features=512, bias=True)
          (cross_attn): MultiheadAttention(
            (out_proj): Linear(in_features=512, out_features=512, bias=True)
          )
          (linear1): Linear(in_features=512, out_features=2048, bias=True)
          (dropout): Dropout(p=0.1, inplace=False)
          (linear2): Linear(in_features=2048, out_features=512, bias=True)
          (norm2): LayerNorm((512,), eps=1e-05, elementwise_affine=True)
          (norm3): LayerNorm((512,), eps=1e-05, elementwise_affine=True)
          (dropout2): Dropout(p=0.1, inplace=False)
          (dropout3): Dropout(p=0.1, inplace=False)
        )
        (4): TransformerDecoderLayer(
          (sa_qcontent_proj): Linear(in_features=512, out_features=512, bias=True)
          (sa_qpos_proj): Linear(in_features=512, out_features=512, bias=True)
          (sa_kcontent_proj): Linear(in_features=512, out_features=512, bias=True)
          (sa_kpos_proj): Linear(in_features=512, out_features=512, bias=True)
          (sa_v_proj): Linear(in_features=512, out_features=512, bias=True)
          (self_attn): MultiheadAttention(
            (out_proj): Linear(in_features=512, out_features=512, bias=True)
          )
          (norm1): LayerNorm((512,), eps=1e-05, elementwise_affine=True)
          (dropout1): Dropout(p=0.1, inplace=False)
          (ca_qcontent_proj): Linear(in_features=512, out_features=512, bias=True)
          (ca_qpos_proj): Linear(in_features=512, out_features=512, bias=True)
          (ca_kcontent_proj): Linear(in_features=512, out_features=512, bias=True)
          (ca_kpos_proj): Linear(in_features=512, out_features=512, bias=True)
          (ca_v_proj): Linear(in_features=512, out_features=512, bias=True)
          (ca_qpos_sine_proj): Linear(in_features=512, out_features=512, bias=True)
          (cross_attn): MultiheadAttention(
            (out_proj): Linear(in_features=512, out_features=512, bias=True)
          )
          (linear1): Linear(in_features=512, out_features=2048, bias=True)
          (dropout): Dropout(p=0.1, inplace=False)
          (linear2): Linear(in_features=2048, out_features=512, bias=True)
          (norm2): LayerNorm((512,), eps=1e-05, elementwise_affine=True)
          (norm3): LayerNorm((512,), eps=1e-05, elementwise_affine=True)
          (dropout2): Dropout(p=0.1, inplace=False)
          (dropout3): Dropout(p=0.1, inplace=False)
        )
        (5): TransformerDecoderLayer(
          (sa_qcontent_proj): Linear(in_features=512, out_features=512, bias=True)
          (sa_qpos_proj): Linear(in_features=512, out_features=512, bias=True)
          (sa_kcontent_proj): Linear(in_features=512, out_features=512, bias=True)
          (sa_kpos_proj): Linear(in_features=512, out_features=512, bias=True)
          (sa_v_proj): Linear(in_features=512, out_features=512, bias=True)
          (self_attn): MultiheadAttention(
            (out_proj): Linear(in_features=512, out_features=512, bias=True)
          )
          (norm1): LayerNorm((512,), eps=1e-05, elementwise_affine=True)
          (dropout1): Dropout(p=0.1, inplace=False)
          (ca_qcontent_proj): Linear(in_features=512, out_features=512, bias=True)
          (ca_qpos_proj): Linear(in_features=512, out_features=512, bias=True)
          (ca_kcontent_proj): Linear(in_features=512, out_features=512, bias=True)
          (ca_kpos_proj): Linear(in_features=512, out_features=512, bias=True)
          (ca_v_proj): Linear(in_features=512, out_features=512, bias=True)
          (ca_qpos_sine_proj): Linear(in_features=512, out_features=512, bias=True)
          (cross_attn): MultiheadAttention(
            (out_proj): Linear(in_features=512, out_features=512, bias=True)
          )
          (linear1): Linear(in_features=512, out_features=2048, bias=True)
          (dropout): Dropout(p=0.1, inplace=False)
          (linear2): Linear(in_features=2048, out_features=512, bias=True)
          (norm2): LayerNorm((512,), eps=1e-05, elementwise_affine=True)
          (norm3): LayerNorm((512,), eps=1e-05, elementwise_affine=True)
          (dropout2): Dropout(p=0.1, inplace=False)
          (dropout3): Dropout(p=0.1, inplace=False)
        )
      )
      (in_proj_map): Sequential(
        (0): Linear(in_features=256, out_features=256, bias=True)
        (1): ReLU()
        (2): Linear(in_features=256, out_features=256, bias=True)
      )
      (map_decoder_layers): ModuleList(
        (0): TransformerDecoderLayer(
          (sa_qcontent_proj): Linear(in_features=256, out_features=256, bias=True)
          (sa_qpos_proj): Linear(in_features=256, out_features=256, bias=True)
          (sa_kcontent_proj): Linear(in_features=256, out_features=256, bias=True)
          (sa_kpos_proj): Linear(in_features=256, out_features=256, bias=True)
          (sa_v_proj): Linear(in_features=256, out_features=256, bias=True)
          (self_attn): MultiheadAttention(
            (out_proj): Linear(in_features=256, out_features=256, bias=True)
          )
          (norm1): LayerNorm((256,), eps=1e-05, elementwise_affine=True)
          (dropout1): Dropout(p=0.1, inplace=False)
          (ca_qcontent_proj): Linear(in_features=256, out_features=256, bias=True)
          (ca_qpos_proj): Linear(in_features=256, out_features=256, bias=True)
          (ca_kcontent_proj): Linear(in_features=256, out_features=256, bias=True)
          (ca_kpos_proj): Linear(in_features=256, out_features=256, bias=True)
          (ca_v_proj): Linear(in_features=256, out_features=256, bias=True)
          (ca_qpos_sine_proj): Linear(in_features=256, out_features=256, bias=True)
          (cross_attn): MultiheadAttentionLocal(
            (out_proj): Linear(in_features=256, out_features=256, bias=True)
          )
          (linear1): Linear(in_features=256, out_features=1024, bias=True)
          (dropout): Dropout(p=0.1, inplace=False)
          (linear2): Linear(in_features=1024, out_features=256, bias=True)
          (norm2): LayerNorm((256,), eps=1e-05, elementwise_affine=True)
          (norm3): LayerNorm((256,), eps=1e-05, elementwise_affine=True)
          (dropout2): Dropout(p=0.1, inplace=False)
          (dropout3): Dropout(p=0.1, inplace=False)
        )
        (1): TransformerDecoderLayer(
          (sa_qcontent_proj): Linear(in_features=256, out_features=256, bias=True)
          (sa_qpos_proj): Linear(in_features=256, out_features=256, bias=True)
          (sa_kcontent_proj): Linear(in_features=256, out_features=256, bias=True)
          (sa_kpos_proj): Linear(in_features=256, out_features=256, bias=True)
          (sa_v_proj): Linear(in_features=256, out_features=256, bias=True)
          (self_attn): MultiheadAttention(
            (out_proj): Linear(in_features=256, out_features=256, bias=True)
          )
          (norm1): LayerNorm((256,), eps=1e-05, elementwise_affine=True)
          (dropout1): Dropout(p=0.1, inplace=False)
          (ca_qcontent_proj): Linear(in_features=256, out_features=256, bias=True)
          (ca_qpos_proj): Linear(in_features=256, out_features=256, bias=True)
          (ca_kcontent_proj): Linear(in_features=256, out_features=256, bias=True)
          (ca_kpos_proj): Linear(in_features=256, out_features=256, bias=True)
          (ca_v_proj): Linear(in_features=256, out_features=256, bias=True)
          (ca_qpos_sine_proj): Linear(in_features=256, out_features=256, bias=True)
          (cross_attn): MultiheadAttentionLocal(
            (out_proj): Linear(in_features=256, out_features=256, bias=True)
          )
          (linear1): Linear(in_features=256, out_features=1024, bias=True)
          (dropout): Dropout(p=0.1, inplace=False)
          (linear2): Linear(in_features=1024, out_features=256, bias=True)
          (norm2): LayerNorm((256,), eps=1e-05, elementwise_affine=True)
          (norm3): LayerNorm((256,), eps=1e-05, elementwise_affine=True)
          (dropout2): Dropout(p=0.1, inplace=False)
          (dropout3): Dropout(p=0.1, inplace=False)
        )
        (2): TransformerDecoderLayer(
          (sa_qcontent_proj): Linear(in_features=256, out_features=256, bias=True)
          (sa_qpos_proj): Linear(in_features=256, out_features=256, bias=True)
          (sa_kcontent_proj): Linear(in_features=256, out_features=256, bias=True)
          (sa_kpos_proj): Linear(in_features=256, out_features=256, bias=True)
          (sa_v_proj): Linear(in_features=256, out_features=256, bias=True)
          (self_attn): MultiheadAttention(
            (out_proj): Linear(in_features=256, out_features=256, bias=True)
          )
          (norm1): LayerNorm((256,), eps=1e-05, elementwise_affine=True)
          (dropout1): Dropout(p=0.1, inplace=False)
          (ca_qcontent_proj): Linear(in_features=256, out_features=256, bias=True)
          (ca_qpos_proj): Linear(in_features=256, out_features=256, bias=True)
          (ca_kcontent_proj): Linear(in_features=256, out_features=256, bias=True)
          (ca_kpos_proj): Linear(in_features=256, out_features=256, bias=True)
          (ca_v_proj): Linear(in_features=256, out_features=256, bias=True)
          (ca_qpos_sine_proj): Linear(in_features=256, out_features=256, bias=True)
          (cross_attn): MultiheadAttentionLocal(
            (out_proj): Linear(in_features=256, out_features=256, bias=True)
          )
          (linear1): Linear(in_features=256, out_features=1024, bias=True)
          (dropout): Dropout(p=0.1, inplace=False)
          (linear2): Linear(in_features=1024, out_features=256, bias=True)
          (norm2): LayerNorm((256,), eps=1e-05, elementwise_affine=True)
          (norm3): LayerNorm((256,), eps=1e-05, elementwise_affine=True)
          (dropout2): Dropout(p=0.1, inplace=False)
          (dropout3): Dropout(p=0.1, inplace=False)
        )
        (3): TransformerDecoderLayer(
          (sa_qcontent_proj): Linear(in_features=256, out_features=256, bias=True)
          (sa_qpos_proj): Linear(in_features=256, out_features=256, bias=True)
          (sa_kcontent_proj): Linear(in_features=256, out_features=256, bias=True)
          (sa_kpos_proj): Linear(in_features=256, out_features=256, bias=True)
          (sa_v_proj): Linear(in_features=256, out_features=256, bias=True)
          (self_attn): MultiheadAttention(
            (out_proj): Linear(in_features=256, out_features=256, bias=True)
          )
          (norm1): LayerNorm((256,), eps=1e-05, elementwise_affine=True)
          (dropout1): Dropout(p=0.1, inplace=False)
          (ca_qcontent_proj): Linear(in_features=256, out_features=256, bias=True)
          (ca_qpos_proj): Linear(in_features=256, out_features=256, bias=True)
          (ca_kcontent_proj): Linear(in_features=256, out_features=256, bias=True)
          (ca_kpos_proj): Linear(in_features=256, out_features=256, bias=True)
          (ca_v_proj): Linear(in_features=256, out_features=256, bias=True)
          (ca_qpos_sine_proj): Linear(in_features=256, out_features=256, bias=True)
          (cross_attn): MultiheadAttentionLocal(
            (out_proj): Linear(in_features=256, out_features=256, bias=True)
          )
          (linear1): Linear(in_features=256, out_features=1024, bias=True)
          (dropout): Dropout(p=0.1, inplace=False)
          (linear2): Linear(in_features=1024, out_features=256, bias=True)
          (norm2): LayerNorm((256,), eps=1e-05, elementwise_affine=True)
          (norm3): LayerNorm((256,), eps=1e-05, elementwise_affine=True)
          (dropout2): Dropout(p=0.1, inplace=False)
          (dropout3): Dropout(p=0.1, inplace=False)
        )
        (4): TransformerDecoderLayer(
          (sa_qcontent_proj): Linear(in_features=256, out_features=256, bias=True)
          (sa_qpos_proj): Linear(in_features=256, out_features=256, bias=True)
          (sa_kcontent_proj): Linear(in_features=256, out_features=256, bias=True)
          (sa_kpos_proj): Linear(in_features=256, out_features=256, bias=True)
          (sa_v_proj): Linear(in_features=256, out_features=256, bias=True)
          (self_attn): MultiheadAttention(
            (out_proj): Linear(in_features=256, out_features=256, bias=True)
          )
          (norm1): LayerNorm((256,), eps=1e-05, elementwise_affine=True)
          (dropout1): Dropout(p=0.1, inplace=False)
          (ca_qcontent_proj): Linear(in_features=256, out_features=256, bias=True)
          (ca_qpos_proj): Linear(in_features=256, out_features=256, bias=True)
          (ca_kcontent_proj): Linear(in_features=256, out_features=256, bias=True)
          (ca_kpos_proj): Linear(in_features=256, out_features=256, bias=True)
          (ca_v_proj): Linear(in_features=256, out_features=256, bias=True)
          (ca_qpos_sine_proj): Linear(in_features=256, out_features=256, bias=True)
          (cross_attn): MultiheadAttentionLocal(
            (out_proj): Linear(in_features=256, out_features=256, bias=True)
          )
          (linear1): Linear(in_features=256, out_features=1024, bias=True)
          (dropout): Dropout(p=0.1, inplace=False)
          (linear2): Linear(in_features=1024, out_features=256, bias=True)
          (norm2): LayerNorm((256,), eps=1e-05, elementwise_affine=True)
          (norm3): LayerNorm((256,), eps=1e-05, elementwise_affine=True)
          (dropout2): Dropout(p=0.1, inplace=False)
          (dropout3): Dropout(p=0.1, inplace=False)
        )
        (5): TransformerDecoderLayer(
          (sa_qcontent_proj): Linear(in_features=256, out_features=256, bias=True)
          (sa_qpos_proj): Linear(in_features=256, out_features=256, bias=True)
          (sa_kcontent_proj): Linear(in_features=256, out_features=256, bias=True)
          (sa_kpos_proj): Linear(in_features=256, out_features=256, bias=True)
          (sa_v_proj): Linear(in_features=256, out_features=256, bias=True)
          (self_attn): MultiheadAttention(
            (out_proj): Linear(in_features=256, out_features=256, bias=True)
          )
          (norm1): LayerNorm((256,), eps=1e-05, elementwise_affine=True)
          (dropout1): Dropout(p=0.1, inplace=False)
          (ca_qcontent_proj): Linear(in_features=256, out_features=256, bias=True)
          (ca_qpos_proj): Linear(in_features=256, out_features=256, bias=True)
          (ca_kcontent_proj): Linear(in_features=256, out_features=256, bias=True)
          (ca_kpos_proj): Linear(in_features=256, out_features=256, bias=True)
          (ca_v_proj): Linear(in_features=256, out_features=256, bias=True)
          (ca_qpos_sine_proj): Linear(in_features=256, out_features=256, bias=True)
          (cross_attn): MultiheadAttentionLocal(
            (out_proj): Linear(in_features=256, out_features=256, bias=True)
          )
          (linear1): Linear(in_features=256, out_features=1024, bias=True)
          (dropout): Dropout(p=0.1, inplace=False)
          (linear2): Linear(in_features=1024, out_features=256, bias=True)
          (norm2): LayerNorm((256,), eps=1e-05, elementwise_affine=True)
          (norm3): LayerNorm((256,), eps=1e-05, elementwise_affine=True)
          (dropout2): Dropout(p=0.1, inplace=False)
          (dropout3): Dropout(p=0.1, inplace=False)
        )
      )
      (map_query_content_mlps): ModuleList(
        (0): Linear(in_features=512, out_features=256, bias=True)
        (1): Linear(in_features=512, out_features=256, bias=True)
        (2): Linear(in_features=512, out_features=256, bias=True)
        (3): Linear(in_features=512, out_features=256, bias=True)
        (4): Linear(in_features=512, out_features=256, bias=True)
        (5): Linear(in_features=512, out_features=256, bias=True)
      )
      (map_query_embed_mlps): Linear(in_features=512, out_features=256, bias=True)
      (obj_pos_encoding_layer): Sequential(
        (0): Linear(in_features=2, out_features=512, bias=True)
        (1): ReLU()
        (2): Linear(in_features=512, out_features=512, bias=True)
        (3): ReLU()
        (4): Linear(in_features=512, out_features=512, bias=True)
      )
      (dense_future_head): Sequential(
        (0): Linear(in_features=1024, out_features=512, bias=False)
        (1): SyncBatchNorm(512, eps=1e-05, momentum=0.1, affine=True, track_running_stats=True)
        (2): ReLU()
        (3): Linear(in_features=512, out_features=512, bias=False)
        (4): SyncBatchNorm(512, eps=1e-05, momentum=0.1, affine=True, track_running_stats=True)
        (5): ReLU()
        (6): Linear(in_features=512, out_features=560, bias=True)
      )
      (future_traj_mlps): Sequential(
        (0): Linear(in_features=320, out_features=512, bias=True)
        (1): ReLU()
        (2): Linear(in_features=512, out_features=512, bias=True)
        (3): ReLU()
        (4): Linear(in_features=512, out_features=512, bias=True)
      )
      (traj_fusion_mlps): Sequential(
        (0): Linear(in_features=1024, out_features=512, bias=True)
        (1): ReLU()
        (2): Linear(in_features=512, out_features=512, bias=True)
        (3): ReLU()
        (4): Linear(in_features=512, out_features=512, bias=True)
      )
      (intention_query_mlps): Sequential(
        (0): Linear(in_features=512, out_features=512, bias=False)
        (1): SyncBatchNorm(512, eps=1e-05, momentum=0.1, affine=True, track_running_stats=True)
        (2): ReLU()
        (3): Linear(in_features=512, out_features=512, bias=True)
      )
      (query_feature_fusion_layers): ModuleList(
        (0): Sequential(
          (0): Linear(in_features=1280, out_features=512, bias=False)
          (1): SyncBatchNorm(512, eps=1e-05, momentum=0.1, affine=True, track_running_stats=True)
          (2): ReLU()
          (3): Linear(in_features=512, out_features=512, bias=True)
        )
        (1): Sequential(
          (0): Linear(in_features=1280, out_features=512, bias=False)
          (1): SyncBatchNorm(512, eps=1e-05, momentum=0.1, affine=True, track_running_stats=True)
          (2): ReLU()
          (3): Linear(in_features=512, out_features=512, bias=True)
        )
        (2): Sequential(
          (0): Linear(in_features=1280, out_features=512, bias=False)
          (1): SyncBatchNorm(512, eps=1e-05, momentum=0.1, affine=True, track_running_stats=True)
          (2): ReLU()
          (3): Linear(in_features=512, out_features=512, bias=True)
        )
        (3): Sequential(
          (0): Linear(in_features=1280, out_features=512, bias=False)
          (1): SyncBatchNorm(512, eps=1e-05, momentum=0.1, affine=True, track_running_stats=True)
          (2): ReLU()
          (3): Linear(in_features=512, out_features=512, bias=True)
        )
        (4): Sequential(
          (0): Linear(in_features=1280, out_features=512, bias=False)
          (1): SyncBatchNorm(512, eps=1e-05, momentum=0.1, affine=True, track_running_stats=True)
          (2): ReLU()
          (3): Linear(in_features=512, out_features=512, bias=True)
        )
        (5): Sequential(
          (0): Linear(in_features=1280, out_features=512, bias=False)
          (1): SyncBatchNorm(512, eps=1e-05, momentum=0.1, affine=True, track_running_stats=True)
          (2): ReLU()
          (3): Linear(in_features=512, out_features=512, bias=True)
        )
      )
      (motion_reg_heads): ModuleList(
        (0): Sequential(
          (0): Linear(in_features=512, out_features=512, bias=False)
          (1): SyncBatchNorm(512, eps=1e-05, momentum=0.1, affine=True, track_running_stats=True)
          (2): ReLU()
          (3): Linear(in_features=512, out_features=512, bias=False)
          (4): SyncBatchNorm(512, eps=1e-05, momentum=0.1, affine=True, track_running_stats=True)
          (5): ReLU()
          (6): Linear(in_features=512, out_features=560, bias=True)
        )
        (1): Sequential(
          (0): Linear(in_features=512, out_features=512, bias=False)
          (1): SyncBatchNorm(512, eps=1e-05, momentum=0.1, affine=True, track_running_stats=True)
          (2): ReLU()
          (3): Linear(in_features=512, out_features=512, bias=False)
          (4): SyncBatchNorm(512, eps=1e-05, momentum=0.1, affine=True, track_running_stats=True)
          (5): ReLU()
          (6): Linear(in_features=512, out_features=560, bias=True)
        )
        (2): Sequential(
          (0): Linear(in_features=512, out_features=512, bias=False)
          (1): SyncBatchNorm(512, eps=1e-05, momentum=0.1, affine=True, track_running_stats=True)
          (2): ReLU()
          (3): Linear(in_features=512, out_features=512, bias=False)
          (4): SyncBatchNorm(512, eps=1e-05, momentum=0.1, affine=True, track_running_stats=True)
          (5): ReLU()
          (6): Linear(in_features=512, out_features=560, bias=True)
        )
        (3): Sequential(
          (0): Linear(in_features=512, out_features=512, bias=False)
          (1): SyncBatchNorm(512, eps=1e-05, momentum=0.1, affine=True, track_running_stats=True)
          (2): ReLU()
          (3): Linear(in_features=512, out_features=512, bias=False)
          (4): SyncBatchNorm(512, eps=1e-05, momentum=0.1, affine=True, track_running_stats=True)
          (5): ReLU()
          (6): Linear(in_features=512, out_features=560, bias=True)
        )
        (4): Sequential(
          (0): Linear(in_features=512, out_features=512, bias=False)
          (1): SyncBatchNorm(512, eps=1e-05, momentum=0.1, affine=True, track_running_stats=True)
          (2): ReLU()
          (3): Linear(in_features=512, out_features=512, bias=False)
          (4): SyncBatchNorm(512, eps=1e-05, momentum=0.1, affine=True, track_running_stats=True)
          (5): ReLU()
          (6): Linear(in_features=512, out_features=560, bias=True)
        )
        (5): Sequential(
          (0): Linear(in_features=512, out_features=512, bias=False)
          (1): SyncBatchNorm(512, eps=1e-05, momentum=0.1, affine=True, track_running_stats=True)
          (2): ReLU()
          (3): Linear(in_features=512, out_features=512, bias=False)
          (4): SyncBatchNorm(512, eps=1e-05, momentum=0.1, affine=True, track_running_stats=True)
          (5): ReLU()
          (6): Linear(in_features=512, out_features=560, bias=True)
        )
      )
      (motion_cls_heads): ModuleList(
        (0): Sequential(
          (0): Linear(in_features=512, out_features=512, bias=False)
          (1): SyncBatchNorm(512, eps=1e-05, momentum=0.1, affine=True, track_running_stats=True)
          (2): ReLU()
          (3): Linear(in_features=512, out_features=512, bias=False)
          (4): SyncBatchNorm(512, eps=1e-05, momentum=0.1, affine=True, track_running_stats=True)
          (5): ReLU()
          (6): Linear(in_features=512, out_features=1, bias=True)
        )
        (1): Sequential(
          (0): Linear(in_features=512, out_features=512, bias=False)
          (1): SyncBatchNorm(512, eps=1e-05, momentum=0.1, affine=True, track_running_stats=True)
          (2): ReLU()
          (3): Linear(in_features=512, out_features=512, bias=False)
          (4): SyncBatchNorm(512, eps=1e-05, momentum=0.1, affine=True, track_running_stats=True)
          (5): ReLU()
          (6): Linear(in_features=512, out_features=1, bias=True)
        )
        (2): Sequential(
          (0): Linear(in_features=512, out_features=512, bias=False)
          (1): SyncBatchNorm(512, eps=1e-05, momentum=0.1, affine=True, track_running_stats=True)
          (2): ReLU()
          (3): Linear(in_features=512, out_features=512, bias=False)
          (4): SyncBatchNorm(512, eps=1e-05, momentum=0.1, affine=True, track_running_stats=True)
          (5): ReLU()
          (6): Linear(in_features=512, out_features=1, bias=True)
        )
        (3): Sequential(
          (0): Linear(in_features=512, out_features=512, bias=False)
          (1): SyncBatchNorm(512, eps=1e-05, momentum=0.1, affine=True, track_running_stats=True)
          (2): ReLU()
          (3): Linear(in_features=512, out_features=512, bias=False)
          (4): SyncBatchNorm(512, eps=1e-05, momentum=0.1, affine=True, track_running_stats=True)
          (5): ReLU()
          (6): Linear(in_features=512, out_features=1, bias=True)
        )
        (4): Sequential(
          (0): Linear(in_features=512, out_features=512, bias=False)
          (1): SyncBatchNorm(512, eps=1e-05, momentum=0.1, affine=True, track_running_stats=True)
          (2): ReLU()
          (3): Linear(in_features=512, out_features=512, bias=False)
          (4): SyncBatchNorm(512, eps=1e-05, momentum=0.1, affine=True, track_running_stats=True)
          (5): ReLU()
          (6): Linear(in_features=512, out_features=1, bias=True)
        )
        (5): Sequential(
          (0): Linear(in_features=512, out_features=512, bias=False)
          (1): SyncBatchNorm(512, eps=1e-05, momentum=0.1, affine=True, track_running_stats=True)
          (2): ReLU()
          (3): Linear(in_features=512, out_features=512, bias=False)
          (4): SyncBatchNorm(512, eps=1e-05, momentum=0.1, affine=True, track_running_stats=True)
          (5): ReLU()
          (6): Linear(in_features=512, out_features=1, bias=True)
        )
      )
    )
  )
)
2025-06-05 15:49:17,570   INFO  Total number of parameters: 65781334
2025-06-05 15:49:17,570   INFO  Start to load infos from /workspace/MTR-model/data/waymo/processed_scenarios_val_infos.pkl
2025-06-05 15:49:17,858   INFO  Total scenes before filters: 44097
2025-06-05 15:49:18,404   INFO  Total scenes after filter_info_by_object_type: 44097
…
